cifar_net.pth (torch, 558517 bytes, 16 tensors)

conv1.weight f4 [100, 3, 2, 2]
00000000: 3cfe 49be 1d1e b5bd b99b 62be cdc0 90bd
00000010: 2f4f 513e 94d4 853e 1dc0 1ebd cdda dabd
00000020: e29f 973d a4fa f7bd 062f 1abe f3cb 09be
00000030: 10e8 223e 6d09 b83e 14e9 61be 582e b2be
00000040: 676d 8e3e 5554 933e 4963 10be 38b8 fdbd
00000050: 7e35 8b3e 1048 15be 040f 0fbd 7a6c 80be
00000060: e61a 6a3e 4359 67bd 6ac9 f0bd d15d 153e
00000070: 5697 643c b485 42be 09a2 863d 3a13 fdbd
00000080: b87b 91be d50d d03d 94a7 73be c94e 8d3e
00000090: cb9e ad3d 3a3a 8f3e a9b4 6b3d dd55 36be
000000a0: 78ac fdbd fd35 903d e37b 723e 9822 68be
000000b0: 4719 42be bf2d b0bd f8ea 6d3e dedc 8c3d
000000c0: b9ec 1f3e e160 45be 70c8 a0bd c2f1 6ebe
000000d0: c0c1 3dbe 0114 7d3e e36e 23be c2c1 c43c
000000e0: 5182 803e 40a9 a23e 49c2 70bd 5e8e a43d
000000f0: 69da 1fbe f511 973e 5819 46be aded 6c3e
00000100: f29f 93be da52 6c3e 7f67 f43c a256 b9bc
00000110: 6969 75be 8ac4 4e3b 7008 97be c2f3 b33e
00000120: a32f 763c ef33 6ebc 8dc4 f8bd 6f9e b7bc
00000130: b501 25bd 2280 e03d 539c 71be 291e 3cbe
00000140: 550f d9bc b694 0bbe 2f10 ab3d 1ed2 47be
00000150: 737a 2fbe 30d5 d4bd 2e3b 963d 33b1 16bd
00000160: 6082 68be bdb3 703e fdfd b63d 73cc 89be
00000170: 584a 4c3e 48ca 8e3d 605a f93d 15a9 a83e
00000180: 7cb6 0b3e f00e 5e3e 3858 2e3e 2fe5 6bbe
00000190: 3db1 f93d 488b 813e a85f a13d 5669 9cbd
000001a0: e8df 05bd 0b91 833d 0800 7ebd 5719 e53d
000001b0: 2025 213d 0e04 993e 1163 51be 7f1b 7a3e
000001c0: 4a86 0dbe 176b adbd d877 38bd 7664 83be
000001d0: bf15 dfbd 88da 3d3c 8a33 983e 5081 33be
000001e0: 0d7f 42be 5831 b53d 53dc 2ebd f58b 043b
000001f0: 205e 113e 438f 86be 264a 163e e1ea 333e
00000200: 3273 a13e a6c7 683a 1813 0c3e 3c6d 90be
00000210: b15c 6b3e 110e 91bd cb6b 66be 387c 863e
00000220: 0561 883e 93c0 2e3e 5a3a 2e3e daad d53c
00000230: 0b32 cfbd 3e57 b63d a3aa debb 3107 66bd
00000240: eaf7 c03d e01a 5fbe 39e1 1ebe c6b1 62be
00000250: 56de 99bd 596e e4bd 98e5 fb3c 96bc 253d
00000260: 4898 b1bd 4993 3e3d 717b f93d 8f88 adbd
00000270: adef 08bc 6530 aabc fff1 c93d 1001 64bc
00000280: 1fac 02be 231e 0a3e 2906 17be 7a0e 59be
00000290: 2a63 9a3e 1694 7bbe cd5c e2bd f37b 823e
000002a0: 324c b63d 47e2 8cbc d54d bc3d 613f d7be
000002b0: 934e a8bd 92f4 4f3e dc35 83bd adde d0bc
000002c0: c181 c23e f7d4 403e d83b d5bc 5278 3f3e
000002d0: 114b b0be 19d4 b53c 993c 41bd b0b5 ad3e
000002e0: 48e7 813d 1395 473e 238b 3e3e 0d6b b53d
000002f0: 3e4b 89be 037c 5a3e 0ba0 b4be fbf5 02bd
00000300: eac3 503e 4011 133e 0678 993e 6354 41be
00000310: 52f0 8abe 4446 423e b3cd 04bd 4c75 29be
00000320: e8c3 62bd 8112 83be 0cec 46bc af62 993e
00000330: 968c 733d 2c30 683e fa40 39be b851 29be
00000340: 1d24 1a3e 363c ecbd 76e2 303e 6033 07be
00000350: 2de2 47be 847b fbbd 5054 953e f530 093e
00000360: 8860 97bd 99c9 03be 755e 0e3d 5446 69bd
00000370: 456f ecbc f23b 6fbe 96d6 5bbe 810a 0dbd
00000380: 5d56 4e3e 6260 213b d4c7 073d d16d 213e
00000390: d8be 673e 1e6d 18be 028c d73d 52a3 513d
000003a0: a5d8 963d 67f1 473b 613c 17be 4ee1 c0bd
000003b0: 2068 173d 9f5f fe3d aeb2 163e 5e27 85bc
000003c0: f854 ab3e 2159 e93d 4657 dfbc cec7 72be
000003d0: d7ed e4bd b4fc 923e 3bed debe 8815 2abe
000003e0: 9870 753e 3e79 8b3e 78c5 9b3d 6285 9bbe
000003f0: 66d8 9dbe 7b94 b03e 5aa6 acbe 664e c83e
-0.19725889 -0.08843634 -0.22129716 -0.07068024 0.20440362 0.26138747 -0.038757432 -0.10686264
0.07403542 -0.12108353 -0.15057 -0.13456707 0.15908837 0.3594469 -0.22061568 -0.34800982
0.27817842 0.28775278 -0.14100374 -0.123886526 0.2718925 -0.14578271 -0.03492643 -0.2508276
0.22861823 -0.05648161 -0.11757167 0.1458657 0.013952097 -0.18996316 0.065738745 -0.12357183
-0.28414702 0.10158888 -0.23794395 0.2759917 0.08477553 0.2797411 0.057545338 -0.17806192
-0.123864114 0.070415474 0.23680072 -0.22669446 -0.18954955 -0.086024754 0.23234165 0.068780646
0.15617646 -0.19275238 -0.078507304 -0.23334411 -0.18530941 0.24714662 -0.15960269 0.024018172
0.25099424 0.31769753 -0.058779035 0.08034967 -0.1561066 0.29505888 -0.19345605 0.23137541
-0.28832966 0.2307848 0.029834507 -0.022624318 -0.23965992 0.0031550252 -0.29498625 0.3514691
0.015026006 -0.014538749 -0.12146864 -0.022414414 -0.04028483 0.109619394 -0.23594789 -0.1837088
-0.026496569 -0.13630947 0.08352696 -0.19513747 -0.17136554 -0.10392225 0.073355064 -0.036790084
-0.22705984 0.23506065 0.08935163 -0.26913795 0.19950235 0.06972176 0.12175441 0.329415
0.13643831 0.21685386 0.1702584 -0.23036645 0.12192009 0.25301576 0.07879573 -0.07637279
-0.032684237 0.06424149 -0.06201175 0.11186474 0.039342046 0.29885906 -0.20447947 0.24424551
-0.13820758 -0.084676914 -0.045036167 -0.25662583 -0.108928196 0.011587746 0.2972682 -0.17529798
-0.18993779 0.08847302 -0.042690586 0.0020225022 0.14196062 -0.26281175 0.14676723 0.17570068
0.315332 0.00088798476 0.13679159 -0.2820834 0.22984578 -0.07082761 -0.22502057 0.26266646
0.2663652 0.17065649 0.17014447 0.026083875 -0.10116967 0.08903359 -0.006795244 -0.056159202
0.09422286 -0.21787596 -0.15515603 -0.22138128 -0.0751311 -0.1115386 0.030749127 0.040463053
-0.086716235 0.04652718 0.12181748 -0.08473312 -0.008357924 -0.02077503 0.0986061 -0.013916269
-0.12760971 0.13488059 -0.14748444 -0.21196929 0.3015378 -0.24568209 -0.110528566 0.2548519
0.08901252 -0.017197741 0.09194533 -0.42040542 -0.08218112 0.2030814 -0.06406757 -0.025496805
0.3798962 0.1883124 -0.026029512 0.18698242 -0.3443227 0.022195863 -0.04717693 0.3392768
0.063429415 0.19490461 0.18607764 0.08858309 -0.26815218 0.21336369 -0.35278353 -0.031972867
0.20387235 0.14362049 0.29974383 -0.18879847 -0.27136475 0.18972117 -0.032422733 -0.16548651
-0.055362612 -0.25600055 -0.012141239 0.29958102 0.059460245 0.22674626 -0.18091193 -0.1653508
0.15052839 -0.11534922 0.17273888 -0.13203192 -0.19519873 -0.12279418 0.29165888 0.13397582
-0.07391459 -0.12869872 0.03475805 -0.056951836 -0.028861651 -0.23362711 -0.21468577 -0.034433845
0.20150132 0.00246241 0.033149555 0.15764548 0.22631395 -0.14885375 0.10524751 0.051181145
0.073655404 0.0030508877 -0.14769126 -0.094179735 0.036964536 0.12420582 0.14716598 -0.016254123
0.33463264 0.11393953 -0.027263295 -0.23709032 -0.11178177 0.28708422 -0.43540367 -0.16609776
0.23968732 0.27240938 0.076060236 -0.303752 -0.3082916 0.34488282 -0.33720666 0.39122313

conv1.bias f4 [100]
00000000: 001b 24be d6d2 b5bd de7b 4ebe 3017 12be
00000010: 65f4 8e3c 5ebc c239 7c2d a7be 9fb7 8cbd
00000020: 05cf 20be 406b a2bc 1757 563b 5c4c 5ebe
00000030: 4da2 16be 7bac 943c 6207 f43c 69ab f43c
00000040: 236c 8e3c ef9b 82be 1aec 213c ff75 b6bd
00000050: c85f 86bd c531 85bc 056a 22bd eee9 193d
00000060: 4681 3abd 3655 8a3b 0030 0f3e 9d09 66be
00000070: 870a 793d c611 4b3d 53a9 c83a f7ec 02be
00000080: 8640 da3c af20 5c3c 0296 38be 5313 db3c
00000090: a650 5cbd 0206 a2b9 48e0 18bd 2385 b2be
000000a0: 2c5b b83c 81a9 6f3d 6d93 65be 56d9 76be
000000b0: 78b2 1fbc bd69 1fbd cd8a 82bd ed5f a23a
000000c0: 54fd 9dbe 32c7 a1ba b7d2 15bd 8456 12be
000000d0: 2796 913c d411 23be 690e ee39 1523 88bd
000000e0: 749a 5ebe 89c8 20be 9360 6cbe af44 c2be
000000f0: 9202 adbb 1d9a 2bbe 0ac0 9cbe f38b 6dbc
00000100: 4244 0dbe 99b5 cd3c b15a d23b d715 313d
00000110: ba42 5b3c 1d57 bdbe 673a 983a b53e 92be
00000120: 9b51 37be c81d 5d3d dd08 29bd 33f3 d239
00000130: 882d 09bc d7f6 8a3d 0365 54be 57a4 37bc
00000140: e0bb dc3c bd13 0d3b 443d 42bc 8e33 a3ba
00000150: 46d5 3cbd 3801 5ebc 8582 85bd abe7 8abd
00000160: 6523 b2bd 544a 33be 4716 573d 136c 873d
00000170: 32d4 0fbe ef6b 90bd 1f3c 803c 80ec 0bbc
00000180: caf1 343c 7548 9c3d e18d a13d ee18 13be
-0.16025925 -0.088781044 -0.20164439 -0.14266658 0.01745052 0.00037142908 -0.3265189 -0.068709604
-0.15703972 -0.019826531 0.0032705718 -0.21708816 -0.1471035 0.018148651 0.029788677 0.029866891
0.017385548 -0.25509593 0.009882951 -0.08909225 -0.065612376 -0.016259084 -0.03965189 0.03757661
-0.04553344 0.0042215837 0.13983154 -0.22464605 0.060801055 0.049577497 0.0015309252 -0.12785707
0.026642095 0.013435527 -0.18025973 0.026742613 -0.05378785 -0.00030903524 -0.037323266 -0.348672
0.022504412 0.05851126 -0.2241952 -0.24106345 -0.00974714 -0.0389192 -0.063741304 0.0012388207
-0.30857337 -0.001234269 -0.036577906 -0.14290816 0.017771794 -0.1592477 0.00045405634 -0.06647316
-0.21738607 -0.15701498 -0.23083715 -0.37943026 -0.0052798474 -0.16758008 -0.30615264 -0.0144986985
-0.1379557 0.025111007 0.0064195027 0.04323372 0.013382608 -0.36980525 0.0011614085 -0.28563467
-0.17902224 0.05398348 -0.04126822 0.0004023552 -0.008372672 0.06785362 -0.20741658 -0.011208615
0.026945055 0.0021526658 -0.011855427 -0.0012451278 -0.04610183 -0.013550095 -0.06519035 -0.067824684
-0.08698157 -0.17508823 0.05251148 0.066124104 -0.1404579 -0.07051837 0.015653668 -0.008540273
0.011043975 0.076310076 0.078883894 -0.14364979

conv2.weight f4 [200, 100, 2, 2]
00000000: 827e 4cbd 3afc 58bd 5770 a7bc 1875 603c
00000010: 5c90 e3bb a156 0b3c 6af0 a53c aeef 15bc
00000020: dcd8 f43c a2f1 2a3b 6bc8 d3bc c45d febc
00000030: 40c3 06bd f600 7dbc 598c 24bd 8c61 1a3d
00000040: f2f8 c9bc 72c7 d03c 46a9 e5bc f8fc 5ebb
00000050: e67f 8abc 27d3 b53d 7d11 86bc 0984 573d
00000060: 04f8 66bd 5958 9ebb 300a 86bd b4a1 053d
00000070: 6e2f c3bc 2685 38bb 784b e23c 765d dbbc
00000080: 77fb 04bd b00e b23b 245e 0a3d 2036 bdbc
00000090: 7a89 19bd f0bb 133d d9e0 3dbd 6508 083d
000000a0: 82ef 0ebc e172 363b 5b8e 27bd c49b 323d
000000b0: 20f6 41bd 8bdb 6fbc 472a 90ba 20d8 f93c
000000c0: ff4a 973c f9ed eebc 9108 94ba 9e41 ed3c
000000d0: f825 1ebc 64c3 24bd ffc4 083c 506e 043d
000000e0: 7291 01bd 47c8 23bd 0024 7e3c 4a16 46bd
000000f0: 7d4f 1bbd a932 8f3d 8c65 60bc 26a2 f2bb
00000100: 36c7 c93b 76cb 57bd 3716 0b3d 9d51 feba
00000110: df69 d43b b427 38bd 77c8 8bbc 61c1 503c
00000120: b442 463d 8ace 123c 3742 2bbd de19 86bd
00000130: 09b1 193c 6843 c4bb 0ec7 87bb bc7f 20bc
00000140: ca34 d3bc 0aba 56bd 7e36 14bd 0e4e 9c3c
00000150: d79f c63c 5a5d 473d 698c e9bb 549a eb3d
00000160: fcaf 313c 98c2 e7bc 7f42 e63b 52f3 1d3d
00000170: 0ebc 50bd 2d8d 18bd 1fd9 05bd 9786 19bd
00000180: 2b71 81bd 40d8 50bc 2d75 95bd f04d 7ebd
00000190: b37b 66bd a4cf e43d b874 903b 6f7f 113d
000001a0: 5da7 3cbd f4e9 063c 2f3e 82bc a5c6 83bc
000001b0: 5bff 963c 9a3b 1bbc f6ea 39bd 5fd7 b8bb
000001c0: 1759 edbc 2702 2e3d 52cc 063d 06e6 0d3d
000001d0: d233 f7bc 44fb 183c 4e7b d0bc a748 16bb
000001e0: 8f5f 393d adb0 bbbc ea36 fbbb 1ba3 1abd
000001f0: fd50 173d 983b b53c f980 07bd 7aba ea3c
00000200: 7aec bebb 5fe5 2c3c 467c 4e3b d9a5 ac3c
00000210: 1362 fd3b 4d3d 44bd e20e 083d c384 3bbd
00000220: b813 a0bc 46c0 123d 26f8 21bd e29f 64bd
00000230: 2e0b 04bd 5690 5a3d 1e33 16bd b163 c13c
00000240: c961 193c d8cc bdbc 0aac acbc e69f c2bc
00000250: 02d8 01bd b76f a2bc e139 04bc fdf7 623b
00000260: f716 8c3a 6425 01bd e33d 30bd 48da 13bd
00000270: 0160 513c ab10 31bd d38e 2ebc 65ec 9fbc
00000280: 9847 4fbd 603b e0bb 4fc6 83bb aac4 dbbb
00000290: b581 6a3b a6bc f73c 3843 83bc 85ee f6bc
000002a0: 59eb 733c 0fcc 56bc ce1a 5fbc c49d a23c
000002b0: 024d 1e3c ace2 ea3c 4041 943c 4511 063d
000002c0: 4598 863c 532d 3c3d 01ec 29bb e758 483d
000002d0: 0d94 403d 6def efbc 8501 2fbc 2e8c 523d
000002e0: 6b04 43bd 9faf 893d 3553 143b 2a04 353d
000002f0: 7534 933c ca7e 363d b9e4 533c 3c08 1d3d
00000300: 7967 ce39 7db0 a7bc e7ac b9bc b3a0 373b
00000310: 2f7d 60bd af38 003d 4ac1 80bd 1046 1d3d
00000320: e2c2 a23c e471 843b 0d34 ab3c 9dc3 9bbc
00000330: 6cc3 973c 9609 5cbc 194a d03c 4e3b 3c3d
00000340: de58 483c 9e9d 81bd b3c6 ffbb fd43 25bd
00000350: cf6d ebbc fc7a 5b3d 03d2 3cbd 1783 393d
00000360: 4ab7 583d 8eaf 9ebd b277 0dbc e2f5 61bc
00000370: 3da1 0dbc 8271 943c 5a66 e93c bae1 b43c
00000380: 165b 76bc 00e4 54bd 88c9 41bd c271 083d
00000390: 2514 d33b 4b49 8abc d471 033d 8d72 043c
000003a0: 6c13 41bd 855b cbbc 49ea 2dbd 68c2 a3bc
000003b0: e8e1 7cbc feab 36bc 38c0 383d a230 de3c
000003c0: dfa5 c4bc 44cf 233d 276e 933c ab5c 52bd
000003d0: 3140 c7bc 2f25 153d 1e22 cc3c 655c e33c
000003e0: a0a9 eebb 3254 c23c 1d2b 41bd e1b2 7dbd
000003f0: f215 64bc 54b6 3dbc b1ed 74bd 958a 63bd
-0.049925335 -0.052974917 -0.02043931 0.013699792 -0.006944699 0.008504541 0.02025624 -0.009151382
0.029888563 0.0026083966 -0.025852403 -0.03105057 -0.03290105 -0.015442124 -0.04017291 0.037690684
-0.02465484 0.025485728 -0.028034817 -0.0034025293 -0.01690669 0.08878165 -0.016365761 0.052616153
-0.05638887 -0.004832309 -0.06544912 0.032624915 -0.023826327 -0.0028155535 0.027623877 -0.026777964
-0.032466378 0.00543388 0.033781186 -0.023097098 -0.037484623 0.036067903 -0.04635701 0.03321113
-0.008724095 0.002783947 -0.040907245 0.04360558 -0.047353864 -0.0146397455 -0.0010998928 0.030498564
0.018468378 -0.029166209 -0.0011294057 0.028961953 -0.009652607 -0.0402254 0.008347749 0.032331765
-0.031632848 -0.03998592 0.015511513 -0.0483611 -0.037917603 0.069920845 -0.013696086 -0.0074045835
0.006157781 -0.05268427 0.033956733 -0.0019402985 0.0064823474 -0.04495974 -0.017063363 0.012741418
0.048403457 0.008960376 -0.041811194 -0.065479025 0.009380587 -0.0059894808 -0.004143602 -0.009796079
-0.025782008 -0.052423514 -0.03618478 0.019080188 0.02424614 0.04867301 -0.007127334 0.11504045
0.010845181 -0.028291032 0.00702697 0.038562126 -0.050960593 -0.03724401 -0.032677766 -0.03748187
-0.06320413 -0.0127468705 -0.0729774 -0.062086046 -0.056270313 0.11172417 0.004408445 0.03552192
-0.046058048 0.00823449 -0.015898792 -0.016085932 0.01843231 -0.009474659 -0.04539009 -0.0056409086
-0.028973145 0.04248252 0.0329097 0.034643196 -0.030176077 0.00933725 -0.025449421 -0.0022931488
0.045257147 -0.022911394 -0.0076664584 -0.037753206 0.03694247 0.022123143 -0.033081982 0.028653372
-0.00582653 0.010552733 0.0031507178 0.021075176 0.0077326386 -0.047910023 0.03321732 -0.04578091
-0.019540653 0.035827897 -0.039543293 -0.05581654 -0.032237224 0.053360306 -0.036669843 0.023607107
0.009361693 -0.023168966 -0.021078128 -0.023757886 -0.03170014 -0.01982866 -0.00807044 0.0034632676
0.0010687996 -0.0315298 -0.04302777 -0.03609684 0.012779237 -0.043228786 -0.010654169 -0.019521901
-0.050605386 -0.0068430156 -0.004021443 -0.006706794 0.0035782878 0.030241322 -0.016023263 -0.030143032
0.014887654 -0.013110175 -0.013617231 0.01985062 0.009661915 0.028672539 0.01809752 0.032731313
0.01643003 0.045941662 -0.0025928023 0.04891291 0.047016192 -0.029288972 -0.010681515 0.051403217
-0.047611635 0.0672295 0.0022632603 0.044193424 0.01796935 0.04455451 0.01293295 0.03833793
0.00039368475 -0.020469898 -0.022665454 0.0028019368 -0.054806884 0.031304058 -0.06286867 0.038396895
0.019868318 0.004041897 0.020898843 -0.019014174 0.018525802 -0.01343002 0.025425958 0.045954995
0.012228219 -0.06328891 -0.007805669 -0.04034804 -0.028738884 0.053584084 -0.04609872 0.045291033
0.052909173 -0.07748328 -0.008634495 -0.013791533 -0.008644399 0.018120531 0.028491188 0.022080291
-0.015036365 -0.05197525 -0.047311336 0.033311613 0.0064416104 -0.016880652 0.032090977 0.008083952
-0.047137663 -0.024823913 -0.04245976 -0.019990161 -0.01543472 -0.011149405 0.04510519 0.0271228
-0.024004875 0.039992586 0.01799686 -0.051357906 -0.024322601 0.036412414 0.024918612 0.027754018
-0.0072834045 0.023721788 -0.047160257 -0.06193817 -0.013921248 -0.011579115 -0.059796993 -0.055552084

conv2.bias f4 [200]
00000000: 933f 7ebb 18d8 02be 7796 5bbd cf14 cebc
00000010: 41cb df3d e687 96bc 1a38 ad3c b048 ba3d
00000020: 67d2 6abd 5d3e 35bd 5b79 ca3c 93a4 903d
00000030: 6ed7 be3d 2436 cc3d 9af1 6d3c 8aa7 48bc
00000040: 334d 5c3c 1bb9 cebc 5a01 5e3d b2b0 aebd
00000050: ee16 96bd c3ca d6bd 8537 ffbc 0ecf 4ebc
00000060: bf51 cfbc b098 043d ed83 1e3d 027e 38bd
00000070: ff2b 413d d73a cd3d c8f7 41bd 7980 48bc
00000080: b537 4bbd 54c7 99bd bacc 413c 04ea b5bd
00000090: 5e80 14bd 9819 343d c229 27bd dda6 c4bc
000000a0: f0b9 313d 2d3c 9c3d d759 e3bc 9364 b63d
000000b0: 1f9b 86bd 5adc 4e3c d55f 88bb 5e69 51bd
000000c0: f9f5 6bbd a28e da3c f33a eb3c 29ca 26bd
000000d0: d296 563c 30b8 cfbc 4a2f 933d f441 3b3c
000000e0: 604a f1bb b401 88bd 7920 0a3d bdb3 1bbc
000000f0: fecc 953b 004d 21bc f14b d3bd 09a0 01be
00000100: eff3 debc f6ea bc3c d6da 9c3d bed3 1fbd
00000110: c80a 583d 5182 6d3c fdd2 613d c06f e2bd
00000120: ab50 b33d 9b8b b0bc 89b1 47bd d4bf 44bd
00000130: 42c2 b53c 79bd 143d b9d6 613b 7245 7a3d
00000140: 6459 81bd 733a dd3d 32ef 8e3a 9c85 293d
00000150: 2fcf 0c3d b468 1fbd c57e bbbb 5b49 23bc
00000160: 6398 49bd a50d aabb 0e50 d73c dbde 03bd
00000170: 3642 8ebd 02ea 5cbc 7bd4 ec3d 1a08 8f3d
00000180: 4774 9b3c 36d8 8c3c ac29 53bd f278 efbb
00000190: fd82 f73b d08c cfbc e1c2 8ebc 72d4 62ba
000001a0: 4b10 5d3c eaad df3c cb90 893c 6e7a 783d
000001b0: c671 cfbc b208 6e3c f3ae 61bd e61d 7cbc
000001c0: 209b 613c 6745 20bd f417 893d 36d3 74bc
000001d0: 98a1 acbd f8c0 3a3d af92 4cbd 1332 58bd
000001e0: 029c e43c 5538 733d 4f61 0e3c 83c7 583d
000001f0: 7cf6 ad3c 4c4b d6bb e548 c4bd 5433 5cbd
00000200: d4a2 c83d 06f1 0f3c 7b39 24bd 8d55 163d
00000210: 6255 fd3c 251d d2bc 3d2c 253d b912 d3bd
00000220: 3ec2 11bd 3824 40bd 13c7 383d 7e2b edbc
00000230: e000 6abc a24f 91bd d193 1fbd 8794 c0bc
00000240: 55da 333d d14b 98bc 432a 073d f820 55bd
00000250: ccd5 2abd ef30 d9bd 6827 8abc 9c63 9bbd
00000260: 3317 863d 1589 f938 06bf 6d3d 9d9e 163d
00000270: a0c9 d33c 0504 24bd 4e8f 1abd 7ffb 9cbc
00000280: 0487 a8bc 0445 8b3d 7ece 143c 612c 51bd
00000290: 4e21 0c3d 5b4f 7cbc 5f6f 63bd 5aaf 81bd
000002a0: 9777 9d3d 1542 32bd d236 033d 9a92 593d
000002b0: 8c31 2ebd a854 943c 9308 783d 8798 54bc
000002c0: dc20 0fbc d558 dfbc a387 7a3d 4d38 63bc
000002d0: d23f 51bd b54a 70bd 2849 ad3c 9745 1f3d
000002e0: 085a 773b b43d 55bd 1ea2 053c 1d31 14bd
000002f0: fdcd d33c bc63 cabd ad25 633d 2e8e 36bd
00000300: 31f6 95bd c074 7abd e8a1 42bd 2072 0abe
00000310: 97b3 35bc d1ec 283d d9ab c2bc 1c9a aebd
-0.0038795217 -0.12777746 -0.05361029 -0.025156407 0.109274395 -0.018375348 0.021144915 0.09095895
-0.05732956 -0.044248927 0.02471607 0.0706264 0.09318434 0.09971264 0.014522934 -0.012246976
0.01344614 -0.02523475 0.054200508 -0.08529796 -0.07328592 -0.104878925 -0.031154403 -0.012622608
-0.025307534 0.032372177 0.038700033 -0.045042045 0.0471611 0.100209884 -0.047355443 -0.0122376615
-0.049613673 -0.07508722 0.011828596 -0.088825256 -0.036255233 0.04396972 -0.040811308 -0.024005348
0.043390214 0.07628665 -0.0277528 0.08905902 -0.06572556 0.012625778 -0.0041618147 -0.051125877
-0.057607625 0.02667934 0.028714633 -0.04072014 0.013097482 -0.025356382 0.07186754 0.011429299
-0.0073636025 -0.0664095 0.033722375 -0.009503302 0.004571556 -0.009845018 -0.10317219 -0.12658705
-0.027215926 0.023061257 0.07658927 -0.039020292 0.052744657 0.014496402 0.055132855 -0.11056471
0.087556206 -0.021550944 -0.048753295 -0.048034504 0.022187356 0.036313508 0.003446026 0.061101384
-0.06315878 0.10802164 0.0010905026 0.041387185 0.034377273 -0.038918212 -0.005721899 -0.00996622
-0.049217593 -0.005189615 0.02628329 -0.032194953 -0.069462225 -0.013483526 0.11563965 0.06983967
0.018976344 0.017192941 -0.051553413 -0.007308119 0.007553457 -0.0253357 -0.01742691 -0.00086528726
0.013492654 0.027304608 0.016792675 0.060663633 -0.025322806 0.01452844 -0.055098485 -0.015387988
0.013769895 -0.039128687 0.06694022 -0.014942935 -0.08429259 0.045594186 -0.049944576 -0.05278213
0.027906422 0.059379894 0.008690192 0.052924644 0.021235697 -0.006539738 -0.09584216 -0.053759888
0.09796682 0.008785492 -0.04009388 0.03670268 0.030924503 -0.025648663 0.040325392 -0.103063054
-0.035585634 -0.04690954 0.045111727 -0.028951403 -0.014282435 -0.07095267 -0.038959328 -0.023508323
0.04390939 -0.01859084 0.03299929 -0.052033395 -0.0417078 -0.106050365 -0.016864493 -0.07587358
0.06547394 0.00011898779 0.058043502 0.03677236 0.025852978 -0.040042896 -0.037734322 -0.019162891
-0.020572193 0.06800273 0.009082435 -0.051067714 0.03421145 -0.015399779 -0.055526134 -0.06332274
0.076888256 -0.043520052 0.032034703 0.053118326 -0.04252772 0.018106773 0.060555052 -0.0129758185
-0.008735862 -0.027264038 0.06116451 -0.013868404 -0.051086254 -0.058664996 0.021153048 0.038884725
0.0037742872 -0.052060798 0.0081563275 -0.03617965 0.025855059 -0.09882304 0.055455852 -0.044569187
-0.07322348 -0.061146498 -0.047517687 -0.13520098 -0.011090181 0.04124147 -0.023763584 -0.08525488

conv3.weight f4 [32, 200, 2, 2]
00000000: bae9 51bd dc2c faba 613f ecbc fd17 f73c
00000010: 0ca8 97bc 3b4b c7bc 7c61 153c e09a d93c
00000020: 8d37 dcbc 4603 b7bc ed08 02bd cf0e af3c
00000030: fbda 0bbd b676 213c 8f21 ac3c fcc2 0bbd
00000040: aef0 143d c347 2c3d 06e0 29bd e1b0 a1bd
00000050: e79e d53d 6a96 4c3c aa67 403d cfc0 1ebb
00000060: 03cb 0e3d 53fc dc3b 644f 9aba 53c7 babc
00000070: b3f1 4b3c b6e5 463d 285a 163d 4f74 10bd
00000080: 0547 afbc 5eab 1fbd 086f 40bd 7adb 69bd
00000090: 7824 b5bc c484 ffbc b938 40bb a5b2 c73c
000000a0: 1c9b d13c 19d4 0ebd 4ca9 6e3b 3767 6c3c
000000b0: 7fbc 233d b9e2 75bd 0933 c83c 3111 41bc
000000c0: de94 dd3a fe1b 453d d88f 443c 6b56 df3c
000000d0: e544 fd3c 41cc d6bb 548c 5dbc 8fc5 d239
000000e0: 1ca6 20bb f585 f03c 5b18 abbc a5da e7bb
000000f0: e6fe 62bb 6e68 b0bc 004e 00bd 1fff 2dbd
00000100: 4185 213d 343a 62bd c047 0f3d c2af a6bc
00000110: 8935 083d 56d7 023d de2e 0d3c 53bf 8cbc
00000120: d969 66bc 63db 013d 6192 cabc a67a c03c
00000130: 6023 e23c 5f45 d4bc af57 afbc 5982 8abc
00000140: 7ac3 2ebd 992a 223c 446e 383d bbfe c53c
00000150: a331 98bc b8e0 843a 3502 723c 32a1 4cbb
00000160: d358 3dbd a7f9 e63b 0c60 fb3c 09e4 323b
00000170: 68d0 9f3b 5bf5 243c 53d1 cebc e52d 883c
00000180: ff68 58bd 4fdf ebbb 7212 2ebd 4aef 92bc
00000190: f37d f0bb 6402 a03b eaf9 c2bc 0601 d1bc
000001a0: 78f2 8bbc 16b2 fb3c de53 d8bc 03e9 edbc
000001b0: 25a4 0cbb 7e65 803c 39d5 2cbd a36c 87bb
000001c0: 6628 8ebb f14f c4bc d997 3d3b 40ff 2abb
000001d0: 94a5 a83c 0bf3 e8bc 52f2 8dbc d6a5 f1ba
000001e0: 7f2c 4ebd a436 c5ba a2d4 3bbd b70c 513d
000001f0: 301b 083c 9c55 033d 92c0 53bc 2f91 d0bc
00000200: 0b5f ef39 3a72 ef3c 1cfb 2c3b b0b8 0fbd
00000210: 60f7 23bc 393d 753c 698a 2d3d 0cdb 14bd
00000220: 44e6 a13c 5c57 32bc 1cb0 e43c d720 08bc
00000230: e472 e4bc 13ab 493d d1b4 ef38 05f7 273d
00000240: 1322 483c 5ad4 31bc 47e6 203a 858c 9dbc
00000250: c29c 873c efce 33bd 70d8 ddba a418 7a3c
00000260: 3000 78bc a989 503d 44aa ce3d 70e4 06bc
00000270: 7696 0abd 43d6 10bc b3b2 273c 7a89 893c
00000280: dddc c139 ce7e 26bc 4232 283d 1c9b 8abc
00000290: c303 b03d bac4 073c ba67 a23d 8cad 423d
000002a0: 2f6b b23b 770d 8fba 51b9 d73b a7cc 81bc
000002b0: 2760 d63c fc37 46bd 5fe5 87bb ca1c 11bd
000002c0: 5ccc dc3c ebe8 b3bc fd2e 3fbc 2c05 163d
000002d0: 8002 643d a1c4 2dbd 5231 513d 1a7c e73c
000002e0: d26d 8ebc 84a3 cbbc 4d5a 7e3c 9937 a5bc
000002f0: 2e98 213d 27a7 b3bc 8f5f 3fbc d4ae 15bd
00000300: 0971 3c3d 584d f73c fd4f f23c 865f 00bd
00000310: 6f71 8bbc a995 97bc 3e7b b8bb 26c5 84bd
00000320: a8fd e4bc eb4e d73b 6eab 4bbd 5618 5fbc
00000330: 0b55 35ba cae3 ebbb 3c77 29bd b2bc 9e3c
00000340: c973 1abd 5fed 10bc 8c05 a4bc 93c4 01bd
00000350: 28a6 ce3c b909 3b3c ce80 f8bc f352 d63c
00000360: c182 ad3d 49c8 003d b024 703d 68c0 e2ba
00000370: 94e3 f13b 33f3 643c 9a35 a4bc e9a4 db3c
00000380: 5ac0 7c3d d6d8 1b3d 8b4e 9cbb d76d 42bd
00000390: b0d1 aa3c 8b72 0b3c f375 2fbd d411 32bd
000003a0: e841 72bc 418e 83bc 1335 c2bc 8a09 47bd
000003b0: d8f3 583c c959 6ebc 324a 263d 5ce0 82bc
000003c0: 825c 89bc 4294 703d cae7 d53c fa6a 3bbc
000003d0: 05d4 0dbd 0069 b1ba 5d4f 2bbc 394d b13c
000003e0: 6c49 5b3c bd67 2dbd 358a 1bbd 56fc 67bd
000003f0: 2798 1cbc 1e51 813c 74ae 3bbd 60b2 843b
-0.05124829 -0.0019086855 -0.028838815 0.030162806 -0.018512748 -0.024327865 0.00911748 0.026563108
-0.026881957 -0.022340428 -0.031746794 0.021369366 -0.034144383 0.009854963 0.021012096 -0.0341215
0.036362343 0.042060625 -0.04147341 -0.07895065 0.10430699 0.012487033 0.04697386 -0.002422381
0.034861576 0.0067439466 -0.0011772928 -0.022800123 0.012447762 0.048558913 0.036707073 -0.03526717
-0.02139617 -0.038981788 -0.046980888 -0.057094075 -0.022112116 -0.031191237 -0.0029330684 0.024377177
0.025586657 -0.03487024 0.0036416827 0.014428905 0.039974686 -0.060030673 0.024438398 -0.011783884
0.0016905328 0.0481224 0.011997186 0.027262887 0.03091664 -0.0065551107 -0.013522226 0.00040201514
-0.0024513071 0.02936075 -0.020885637 -0.007075625 -0.0034636795 -0.021534171 -0.031324387 -0.04247963
0.03943372 -0.055231288 0.034980536 -0.02034748 0.03325418 0.03194364 0.008617131 -0.017181074
-0.014063322 0.031703364 -0.024728002 0.023495983 0.027604759 -0.025911985 -0.021404115 -0.016907858
-0.04266689 0.009897851 0.045027032 0.024169317 -0.018578356 0.0010137772 0.014771034 -0.003122401
-0.046227288 0.007048804 0.030685447 0.0027296564 0.004877139 0.010068263 -0.025246298 0.016623447
-0.052834507 -0.0071982513 -0.04249806 -0.017936368 -0.007339233 0.0048830975 -0.023800809 -0.025513183
-0.017083392 0.030724566 -0.026407178 -0.029041773 -0.0021460142 0.015673395 -0.042195532 -0.0041328236
-0.004338312 -0.0239639 0.002892962 -0.0026092082 0.020586766 -0.028436204 -0.017327461 -0.0018436264
-0.050335404 -0.0015046191 -0.04585708 0.051037516 0.008307263 0.032064065 -0.01292433 -0.025459854
0.00045656445 0.029229272 0.002639479 -0.03508824 -0.010007709 0.01496821 0.042368326 -0.036341712
0.01976312 -0.010885086 0.027916007 -0.008308611 -0.027886815 0.049235415 0.00011430088 0.04100706
0.012215155 -0.010853851 0.00061378296 -0.019232044 0.01655424 -0.04389852 -0.0016925465 0.015264664
-0.015136763 0.050912533 0.10091069 -0.008233175 -0.033834897 -0.0088401465 0.010235476 0.016789187
0.00036976385 -0.0101620685 0.041063555 -0.016919665 0.085944675 0.008286649 0.079299405 0.04752879
0.005444906 -0.0010914047 0.0065833707 -0.015844656 0.026168896 -0.048393235 -0.004147216 -0.035427846
0.026952915 -0.02196165 -0.011668918 0.036626026 0.055666447 -0.042423848 0.051072426 0.028257418
-0.01738635 -0.024858244 0.015524459 -0.020168113 0.03945177 -0.02193029 -0.011680498 -0.036543682
0.046006236 0.030188248 0.029579157 -0.0313411 -0.017021863 -0.01850398 -0.005629926 -0.064829156
-0.027952984 0.006570687 -0.049724035 -0.013616642 -0.00069172744 -0.0071987854 -0.041373476 0.019377086
-0.037708078 -0.008845656 -0.020022176 -0.03168161 0.025225714 0.011415892 -0.030334856 0.0261626
0.08472205 0.031441007 0.058628738 -0.0017299773 0.0073818658 0.013973999 -0.02004509 0.026812034
0.06170688 0.038048588 -0.0047701052 -0.047468033 0.02085194 0.008511196 -0.042837095 -0.043474033
-0.014786221 -0.016059043 -0.023706948 -0.04859308 0.013241731 -0.014547774 0.040598102 -0.015976124
-0.016767744 0.05873514 0.026111502 -0.011439079 -0.034626026 -0.0013535321 -0.010455933 0.021643268
0.013384204 -0.04233526 -0.0379736 -0.05663713 -0.00955776 0.01578575 -0.04582067 0.0040495843

conv3.bias f4 [32]
00000000: 4b65 d93d 63ed 8ebd a1dd 8b3c 96e8 4f3e
00000010: 6244 1fbd 0cf6 f4bd 44b1 79be 833c 27bd
00000020: 4472 37be ca71 8cbd 80ef b5bd c145 e7bc
00000030: ae5c 57bd c94d 79bd a720 13bd e47e 193e
00000040: 37b4 8c3b 101e 16bd ad01 b13c 8989 27bd
00000050: e8bc 653d c674 7ebd 07bd 483d 229f bf3d
00000060: 00b1 11bd b3c2 54bd edeb 993e c668 05be
00000070: 4b55 863d c4d3 1b3d 1acd a03d ca94 cc3d
0.10615023 -0.06978872 0.017073454 0.20303568 -0.038883574 -0.11960992 -0.24384028 -0.040829193
-0.17914683 -0.06857641 -0.088835716 -0.028231503 -0.05257862 -0.060865197 -0.03591981 0.14989811
0.004293944 -0.036649764 0.021607244 -0.040902648 0.05608836 -0.062123083 0.049008396 0.09356524
-0.03556919 -0.051943492 0.3006281 -0.13028249 0.06559237 0.038043752 0.0785162 0.09989317

fc1.weight f4 [80, 288]
00000000: 9399 243c cf4b 693d cd0e 3bbc 6071 c4bc
00000010: 7bb4 84bd 7cc9 55bd 76fc 69bd 6449 02bd
00000020: 33c6 7ebd 8738 4a3d b6d8 08bc 27e9 1c3d
00000030: 4ffa 1dbd 9748 00bd 6b02 48bd 6bd3 85bc
00000040: b5c4 0abd 0125 d53c 6609 563d 4c0a 713d
00000050: 8278 6dbd f6ba 41bd b7c8 67bc 3d42 84bc
00000060: 2720 4fbd e9f0 0bbd 2015 a03c c381 a23c
00000070: fbec 3fbd ef96 1d3d c451 223d ad4a cc3b
00000080: a50b 9fbc bf9e fbbc 8738 10bd 0ba1 173d
00000090: a041 2dbc ffbb 79bb be3e 51bd 30d5 303d
000000a0: 607c 29bd 1c62 d3bc 91e8 b33c a20b 47ba
000000b0: d0bd 2ebb 954e 9aba 1c2c a5bc 6bee 253c
000000c0: 2e8e f63c 222a 2e3d c3cb 323d a0c5 1fbd
000000d0: d734 16bd fe11 da3d ca68 853b 697e 1dbb
000000e0: 3b51 023d 24fe 41bc 5c9b 7abc 3ba6 033d
000000f0: f1f2 af3d ccb5 8d3d 71cb a03d 392f f33c
00000100: 64d4 c1bc a47c 97bd ea36 0d3d c7b3 113d
00000110: 225b a4bc 98dd 93bd dadd 7ebd 8df5 70bb
00000120: 804b 5e3d 4294 873d a809 47bd 4cc5 2736
00000130: dafd da3d 3d09 1b3c 34a9 ddbc c90a 03bc
00000140: 9160 6e3d 2324 193d 199f 3d3d 4132 ba3b
00000150: 7875 edbb 0ab4 4f3c 7fcb 3fbd 9e78 06bd
00000160: a765 273c e6a9 0cbd bbdf 7c3d da70 763d
00000170: 3e39 db3b b234 003d b8ae 70bc ab95 76bd
00000180: a17f 343c a3be 5c3d adea 6c3d ab28 fabc
00000190: d4cf da3c b480 173d 46f1 1abd f635 df3c
000001a0: 7d14 1c3d e341 323d 3c68 543d 1fff 6b3d
000001b0: 256f cabc 4a1f 5e3c 5132 b03d 6203 433d
000001c0: eeff 1abd 6eb1 66bd d169 72bc 7020 2f3d
000001d0: c208 17bd c858 81bd 7be0 b6bc 9a26 8cbd
000001e0: 0413 163d 5d72 4cbd 67cd cebc cac5 293d
000001f0: 2e5c 023d 55e3 a33d fdca ac3d dfd5 52bc
00000200: cfa6 813d 787d 50bd af9b 36bc ee99 44bd
00000210: 7975 2cbb fa29 77bd 7158 13bd 9ca6 d13c
00000220: 96bd ef3c fee4 b53c 8b3d 03bd 16e6 5dbc
00000230: 1e6a 5bbd 50c8 37bc d0ca 1cbd f47b 003d
00000240: 1d76 243d 4126 a43c b3b7 073d 9422 25bd
00000250: 6e50 b8bc b1da 98bd 1920 943c 2fca 093d
00000260: e41b 56bd 494b 1f3d 7ce8 a23c 0e00 abbc
00000270: e48f 223a 37fa c5bc a6bc 293d 4056 823d
00000280: 09ca 833c b512 36bd 3a7d 86bd 3bb0 f7bc
00000290: 8351 1a3d 4e7f f93c c5b4 f3bb 67fe 2abc
000002a0: 55e3 d9bc 8245 aa3d 13e1 25bc 4867 72bb
000002b0: 0f67 2bbd 4433 023d e657 90bc 5cdb efbc
000002c0: e1cb 043c ef21 6f3d 15e5 eb3c 3153 48bd
000002d0: 1758 af3b 0e59 823c be42 03bd e264 9c3c
000002e0: 24ab 53bd cf88 10bd 16c5 f33c 3765 393d
000002f0: 1408 4e3d 20de dfbc 0235 d3bc 91e6 c23c
00000300: a517 183d 85d1 c5bd 8d62 13bd 1b56 623d
00000310: fdec 553c 86ff 643d a810 e03c fa5e bf3c
00000320: 81cd 133d b227 e2bb 4f49 8d3d 9bfc c1bc
00000330: efc2 fbbc d67b 07bd 6783 db3c 8fcb 8abd
00000340: 664c 9fbd 5dbf 8bbd 6a7a 923c 6d42 e1bb
00000350: 545e 37bd ab85 28bc 3ac1 163d 3fe7 ac3b
00000360: e054 31bd 8548 2bbb 366e b1bb 0cd4 ddbc
00000370: 28ba 52bd 02d2 1cbd a71b 57bd e22d 293d
00000380: 6710 803d 6230 283d fa2a bfbc 60e2 00bd
00000390: 9db2 153d 5b63 d23b d6eb 08bd 60c3 0e3d
000003a0: 73ef 02bd 0145 8b3d 4f51 52bd 4913 0a3c
000003b0: 45ed 97bd a279 b7bd dc70 49bd 72b3 123b
000003c0: 0b53 9c3c e813 06bc 4501 6bbd 1438 1f3c
000003d0: 37f3 2d3d 0e79 c63c 5b80 ab3c b6df 143d
000003e0: c352 25bd 0faa a03d a8c0 2a3d 1994 b63b
000003f0: 0f2c 2cbc f408 07bd 72fe f43c 598c 0a3d
0.010046381 0.056957062 -0.011417103 -0.023979843 -0.064797364 -0.052194104 -0.05712553 -0.031808272
-0.062200736 0.049370315 -0.008352449 0.03830829 -0.03856879 -0.031319227 -0.04883043 -0.016336164
-0.033879 0.026018621 0.052255057 0.05884771 -0.057976253 -0.04729744 -0.014146975 -0.016144866
-0.050567772 -0.034165297 0.019541323 0.019837266 -0.04685686 0.03847402 0.03962876 0.006234488
-0.019414732 -0.030715344 -0.03521016 0.037018817 -0.010574728 -0.003810644 -0.051085226 0.04317206
-0.04137838 -0.025803618 0.021961482 -0.0007592981 -0.002666343 -0.0011772687 -0.020162635 0.010127644
0.030097093 0.04252065 0.043651354 -0.03900683 -0.036671486 0.10647963 0.0040713297 -0.0024031645
0.03181575 -0.011840377 -0.01529583 0.03214095 0.08591259 0.069194406 0.07851303 0.029685603
-0.023660846 -0.0739682 0.0344762 0.03557184 -0.020062987 -0.0722 -0.062223293 -0.0036767453
0.05427122 0.06620075 -0.048593193 2.499978e-06 0.106929496 0.009462652 -0.027058221 -0.007998177
0.05819756 0.03738798 0.046294305 0.0056822603 -0.0072466694 0.012677202 -0.04682493 -0.032829873
0.010217107 -0.034341715 0.061736804 0.060166217 0.0066901734 0.031300254 -0.014690094 -0.06020133
0.011016757 0.053892743 0.05784099 -0.03053697 0.026710428 0.036987975 -0.037827753 0.02724741
0.038105477 0.043519866 0.05185722 0.05761635 -0.024711201 0.013557265 0.08603347 0.047610648
-0.03784173 -0.056321554 -0.014795736 0.042755544 -0.036873586 -0.06315762 -0.022323838 -0.068433
0.03663923 -0.049913753 -0.025244428 0.041448392 0.03182619 0.080023445 0.084371544 -0.012868374
0.06330644 -0.050900906 -0.011145516 -0.04799836 -0.0026315136 -0.060342766 -0.035973016 0.02559214
0.029265206 0.022203919 -0.032041114 -0.013543626 -0.053567998 -0.011217192 -0.038279355 0.03136821
0.040151704 0.020037772 0.033134174 -0.04031618 -0.02249929 -0.07463587 0.018081712 0.033640083
-0.052272692 0.038890157 0.019886248 -0.02087405 0.0006201251 -0.024167163 0.041439675 0.06364107
0.016087549 -0.044451434 -0.06566854 -0.0302354 0.037675392 0.030456211 -0.007437321 -0.010436631
-0.026597658 0.08314039 -0.010124463 -0.003698783 -0.04184633 0.031787172 -0.017620038 -0.029279403
0.008105249 0.05838197 0.028795758 -0.048907463 0.0053510773 0.015911605 -0.032046072 0.019091073
-0.051676884 -0.03528672 0.029757064 0.04526254 0.050300673 -0.027327597 -0.025782112 0.023791583
0.037131924 -0.09659103 -0.035982657 0.055257898 0.013056991 0.05590775 0.027351692 0.023360718
0.036084656 -0.0069017047 0.06898748 -0.023680022 -0.0307326 -0.033077084 0.026796056 -0.06777107
-0.07778244 -0.06823609 0.017880637 -0.0068743736 -0.044767693 -0.010285775 0.03680537 0.00527659
-0.043293834 -0.0026135754 -0.0054147495 -0.02707865 -0.051447064 -0.038286217 -0.052516606 0.041303523
0.062531285 0.041061766 -0.023335923 -0.031465888 0.036547292 0.0064205355 -0.033428036 0.034854293
-0.031966638 0.06800271 -0.051347073 0.0084274495 -0.074183024 -0.089587465 -0.049179897 0.002238479
0.019082567 -0.008183457 -0.057374258 0.00971796 0.042468276 0.024227645 0.020935228 0.03634616
-0.04036213 0.07844936 0.041687638 0.005571854 -0.010508551 -0.032967523 0.029906485 0.033825252

fc1.bias f4 [80]
00000000: a3dc fdbc 581d 0ebd 9178 e23d d16c 46bb
00000010: f162 7abc c6a4 81bc 533c fe3a 3745 4b3e
00000020: 8808 57bd fb8b 123e 7b55 c5bb 2b23 46bd
00000030: 1beb 4d3d 3721 183e 73d9 0f3d fe40 833d
00000040: 3d1b a2bd ecf0 a8bd 20a4 40bd 8c0d 873a
00000050: 9956 0fbd e7f9 233e 42a3 a83d deec 863d
00000060: 818c 673e d7f0 ed3c 3d0e c63a 44cc 5abe
00000070: da2e 3d3e 6d04 3c3e 78db 53bc 2abe bdbc
00000080: 9ce4 4e3b 25c1 e43b 64f8 8abb 71f6 b5bd
00000090: 622f df3d fc29 64bd f2fa d0bc 0b66 72bd
000000a0: 18df 04be abf6 b03d 6553 123d e9e3 343d
000000b0: 2c7a b63d 5daf 81bc 392e aebc 7a8d 0fbc
000000c0: df73 1bbd 72f4 f73c 8aa6 62bd 12e9 b2bc
000000d0: 6310 a33c b740 643d e083 913d 849f cd3d
000000e0: 7fee 96bc 9ed1 20bd eb17 83bd 2c3d 50bc
000000f0: f3f7 43bc 6132 d9bd 75a5 f7bc 8160 8e3c
00000100: 1b0d 0e3e 823c 06bd 9325 70bd 9f70 04be
00000110: 5c36 99bd b95f 3c3c 5cd2 553d 33d6 54bd
00000120: b907 8bbd 3358 29bd fec0 753a 9821 b9bb
00000130: 2feb f13c 5ccc e73c a0ce 993d 9e5a 9f3b
-0.030988997 -0.034695953 0.110581525 -0.0030277262 -0.0152823785 -0.01582564 0.001939664 0.19850622
-0.05249837 0.14311211 -0.006022153 -0.048373383 0.050273042 0.1485642 0.035119485 0.06408881
-0.079153515 -0.08249077 -0.04703152 0.001030372 -0.034994695 0.16013299 0.08234264 0.065881476
0.22612192 0.029045505 0.0015110445 -0.21366984 0.18474904 0.18361063 -0.012930743 -0.023161966
0.0031569367 0.0069810324 -0.0042410363 -0.088848956 0.108977094 -0.055704102 -0.025510285 -0.059179347
-0.12975729 0.08640798 0.035724062 0.044162665 0.08910021 -0.01583069 -0.021262275 -0.008761758
-0.0379523 0.030267928 -0.055334605 -0.021839652 0.019905275 0.05572578 0.07105231 0.10040191
-0.01842427 -0.039262407 -0.06401046 -0.012709897 -0.011960971 -0.10605312 -0.030230263 0.017380001
0.13872187 -0.03277255 -0.058629584 -0.12933587 -0.07481071 0.011497431 0.052202567 -0.05196209
-0.06788582 -0.04134388 0.00093747664 -0.0056497566 0.02953109 0.028295688 0.07510114 0.0048630973

fc2.weight f4 [60, 80]
00000000: ddd0 fbbd a9ef d7bd 0157 143e 302b 903d
00000010: 6a74 26bb eb52 04be 120a babd 0a47 c83c
00000020: d56e 9ebc e59d fe3d ce25 b53c 829b adbd
00000030: 044f be3d 21e6 de3d fe47 433c 329b e53d
00000040: c5e0 80bd 6d6b 3e3c 0da8 083e d150 9f3d
00000050: 41f3 323d 043c 163e b5e2 073e 08eb b9bd
00000060: 4996 023e 2678 c5bd f626 243e 8a81 41bd
00000070: 891c c9bb 6d59 bdbd be04 923c 0446 23bd
00000080: 5aa7 d33c ce1c a0bd 3d07 863d ea88 9a3d
00000090: 60b9 023e 9781 96bd b1b4 9f3d e4e7 cfbd
000000a0: 4c63 0ebe c94a 233e 3f5c bd3d 9e09 533c
000000b0: 5f2c 4f3d 40e9 d3bb 3f11 d53d 6143 193e
000000c0: e0d0 953d e503 7bbd 7f3b 14bd f343 bbbd
000000d0: 27aa 983b 8b33 78bd 326e a73d 36f2 e33d
000000e0: 9416 2c3b 9817 cdbd f6c3 70bb 28e3 e63d
000000f0: c96a 003d 4565 a1bd ff18 5c3d 674f 32bd
00000100: b389 f13d cc2e d03d 02ba 1dbd fde9 48bc
00000110: ecf7 083d 6c77 aabd ff4b 46bd 1ff8 cfbd
00000120: 187d 79bb 8cbc 2fbc b5ba 0fbd faa7 f23c
00000130: 5993 4fbd 33b7 92bd 23c1 49bd a0f0 88bd
00000140: 2a52 9abd 5860 ea3c 76d3 3cbd 7ec0 753d
00000150: a5e6 863c b7ac dbbc ed4d 9f3c 3a84 503e
00000160: e673 0e3c 5cad 413d 5e59 973d 3f44 a03b
00000170: cd21 9b3d 63bc d7bc 3cbf 133d 33fa fe3d
00000180: af8c b9bd 51af cbbd 43f6 343d fa96 b6bd
00000190: 568b b0bd 0518 aeba a12d 293d ba8c 243e
000001a0: 5440 be3c 2bc2 22bd f68b d5bc 8bd3 4dbe
000001b0: d19e e43d bc08 c03d 9a5d 053e 55ae c83d
000001c0: 49ee 113e 0b65 e13d 7abd f83c 3002 0ebd
000001d0: 01ae d2bd bfd8 ce3d 0adc a73b a9fb fb3d
000001e0: 4102 bf3d 92c4 eebc 6b4b c33d 3d29 d03b
000001f0: 7ca5 973d e6b6 413e bfb8 f2bc 1c40 88bd
00000200: a87f 3fba 8c2e 073e 1591 82bd a08d 133d
00000210: 27e2 c2bd 5115 573d fdfa f43d 1d38 e3bd
00000220: 8c7d c8bd 9dc2 76bd 3ace cb3c b0a8 cc3d
00000230: 84d7 debb 4bed 383d 0361 0cbd f903 8abc
00000240: 8e99 363d 497f 023e 9cfe 4abd 2fb0 3e3d
00000250: 8527 173d 6ded b43d 5f9f a63d af41 643d
00000260: b276 a0bd ab1c d43d 00ee 9e3d f74f 8bbc
00000270: e6e1 44bd 5746 0a3d a960 e23d 174c 87bd
00000280: 3f8d 62bd c131 fc3d 4071 d8bc a49c b1bd
00000290: b129 88bd 181c d73d 6960 2fbd 927a ecbd
000002a0: cdf8 713b d803 e0bd 2637 f1bd a568 433d
000002b0: 4156 21bd 80be bbbd e4e5 91bb c955 32be
000002c0: 14da e2bc 1f8b 0f3e e9f1 f83d a400 b23c
000002d0: 7558 6dbc 3330 5d3d 7acc b63d e005 ff3d
000002e0: 2113 43bd c235 d63d 8605 64bd dafd 423e
000002f0: 1f33 e1bd eeaf 11be a7f4 7d3d 697f c23c
00000300: ffca 09be 7f84 8fbd 32f0 a2bd 3e90 483d
00000310: e72a ab3d 650d 063d af1c 62bc 7b38 7cbc
00000320: 8d85 463e 0d18 9abd 7bf0 b0bd d76e 03bd
00000330: ef73 e4bd 1a57 d83d bef2 9d3c 401e fb3c
00000340: ccce be3d 0d4b f9bd dafd d7bd 1f7b 133d
00000350: 279b 8b3d 7aa3 b5bd 8cb9 3c3b 99fb 843e
00000360: fc0e 3cbc e95e ef3c 35c2 323d c5d3 bcbd
00000370: b4e2 ce3d 2eff 893d 4d9d 4b3d e008 d7ba
00000380: 19b7 7b3d 1158 fabd 23f4 4cbd 1dff 33bc
00000390: b148 2a3e 7a87 833d 6121 06be 3a56 73bb
000003a0: 03a2 2a3e 95c6 adbd 0307 c5bd 6e7a ab3d
000003b0: 29d3 2e3d 3747 253e 16df 2fbc 2e23 69bd
000003c0: cd6a 55bd edbd babd f4d2 8e3d c036 9f3d
000003d0: 7a72 e03c a7a3 8dbd 8afe b5bd 9fc2 81bd
000003e0: 62c3 783d 1557 3d3d 9e12 68bd e283 a3bd
000003f0: 242a ee3b 37bb 91bd a195 6fbc 6abc e2bc
-0.12295697 -0.105437584 0.14486314 0.07039487 -0.0025398978 -0.12922256 -0.09083952 0.024447937
-0.019339958 0.1243246 0.022112753 -0.084769264 0.09292415 0.10883737 0.01191902 0.11211242
-0.062928714 0.011622292 0.13345356 0.077790864 0.043689016 0.14671332 0.13270076 -0.09078032
0.12752642 -0.09642057 0.16030487 -0.04724268 -0.006137435 -0.09245572 0.017824527 -0.039861694
0.025836635 -0.07817994 0.06544349 0.075456455 0.12766027 -0.07348936 0.07798136 -0.101516515
-0.13905066 0.15946497 0.0924611 0.012880711 0.050579425 -0.0064670146 0.1040368 0.1496711
0.0731523 -0.06128301 -0.036189552 -0.0914382 0.0046589556 -0.06059603 0.08175315 0.111301824
0.0026258575 -0.10014266 -0.0036737896 0.11273795 0.03135184 -0.07880644 0.053734776 -0.043532755
0.11793842 0.10165176 -0.03850747 -0.012262818 0.03343956 -0.08323559 -0.04841232 -0.10154747
-0.0038068946 -0.010726105 -0.035090167 0.029621113 -0.05067763 -0.07163849 -0.049256455 -0.066865206
-0.07535203 0.028610393 -0.046100102 0.059998028 0.016467402 -0.026815755 0.019446338 0.2036294
0.0086946245 0.04728447 0.07390092 0.004890948 0.07574806 -0.026334947 0.036071047 0.124500655
-0.090600364 -0.09945548 0.044180166 -0.08915515 -0.08620326 -0.0013282305 0.04130328 0.16069308
0.023224033 -0.039735954 -0.026067715 -0.20100228 0.11163104 0.09376666 0.13023987 0.09798876
0.14251055 0.110056005 0.030363787 -0.034670055 -0.10287095 0.10099935 0.0051226662 0.1230386
0.09326602 -0.029146466 0.09535869 0.0063525722 0.074046105 0.18917426 -0.02962911 -0.06652853
-0.0007305094 0.1320135 -0.063753285 0.036023736 -0.095157914 0.052510563 0.11961935 -0.11094687
-0.09789571 -0.06024419 0.02487861 0.09993112 -0.006800594 0.045148175 -0.034272205 -0.016847597
0.044580035 0.12743868 -0.04955922 0.04655474 0.036902923 0.08834348 0.081358664 0.055726703
-0.07835139 0.103570305 0.07760239 -0.017005904 -0.048066996 0.033758488 0.11053593 -0.0660631
-0.055310484 0.12314177 -0.02642119 -0.08672455 -0.06648577 0.10503405 -0.042816553 -0.11546816
0.0036921978 -0.10938233 -0.11778097 0.04770722 -0.0393889 -0.09167194 -0.004452454 -0.17415537
-0.027691878 0.14017914 0.12155516 0.021728821 -0.014486422 0.054001044 0.089257196 0.124522924
-0.047625665 0.10459472 -0.05566933 0.19042149 -0.10996079 -0.14227268 0.062000897 0.023742395
-0.13456343 -0.070076935 -0.0795597 0.048965685 0.08357792 0.032727618 -0.013800784 -0.015394325
0.19386883 -0.075241186 -0.08639618 -0.032088127 -0.11154925 0.10563488 0.019280788 0.030654073
0.09316787 -0.12172518 -0.10546465 0.03600609 0.06816702 -0.08869071 0.0028797118 0.25973204
-0.011478182 0.029220061 0.04364224 -0.09220079 0.10101834 0.06738125 0.04971056 -0.0016405843
0.061453912 -0.122238286 -0.050037514 -0.010986117 0.16629292 0.064223245 -0.1309867 -0.0037130252
0.16663365 -0.08485142 -0.09620478 0.08372961 0.042681847 0.16140448 -0.01073434 -0.056918316
-0.052103806 -0.09118257 0.0697383 0.077741146 0.027398337 -0.0691598 -0.0888644 -0.06335949
0.060733207 0.046225626 -0.05665838 -0.07984139 0.007268207 -0.071157865 -0.014623077 -0.027677733

fc2.bias f4 [60]
00000000: ce70 863e a356 0c3e 0147 edbb c262 043d
00000010: 8c82 de3b 25e0 f93b 5d56 a83c d65f 513e
00000020: d52c e2bc 50ee f03d 10b9 893e 40bb 0bbe
00000030: 8a56 123e 3e22 803c c9c3 aa3d 7741 b33d
00000040: e572 d4bc b70f 8c3d 019b 50bd 8143 a3bc
00000050: 4232 abbd f3c7 423e 8ce1 83bd e032 2d3b
00000060: e2ee 66bd b800 e4bd ee81 9f3d 68f2 973e
00000070: 7c2b 4c3e da60 73bc 8e4c c4bd 8e09 afbd
00000080: dd80 913d b6b2 553d f881 df3c 0be5 d03d
00000090: 1ef8 6a3d 4f3e 8abc 6157 a0bc c484 433c
000000a0: 152a c0bd 2f40 a8bd 3f0c 0d3e 9e6c 52bd
000000b0: 0421 713e 6bde 3ebd bbac 0ebd 834a c7bd
000000c0: 42fa 423c aa68 66bd 8870 483e fe55 66bd
000000d0: 9e58 9dbd 119c 803e 4ea7 b33d f3e0 d1bd
000000e0: 0c31 0bbb 4549 c4bd 2390 1f3e 1c11 183e
0.26257938 0.13704924 -0.0072411303 0.032320745 0.0067904647 0.007625597 0.020548994 0.20446715
-0.027609268 0.117642045 0.26899004 -0.13645649 0.14290825 0.015641328 0.08338124 0.08752721
-0.025933692 0.06838935 -0.050929073 -0.01992965 -0.08359195 0.19021587 -0.06439504 0.002642803
-0.05638016 -0.111329496 0.07788454 0.2967713 0.19938463 -0.014854634 -0.09584914 -0.08546744
0.07104657 0.052172385 0.027283654 0.101999365 0.05736553 -0.016875414 -0.019572916 0.011933509
-0.093830265 -0.08215367 0.13774203 -0.051373117 0.2354775 -0.046598833 -0.034832697 -0.09731009
0.011900486 -0.05625216 0.19574177 -0.056234352 -0.07682918 0.2511907 0.08772145 -0.10247984
-0.002123895 -0.095842876 0.15582328 0.14850277

fc3.weight f4 [40, 60]
00000000: b11c f53d 3a0d e8bd 3bd5 b93d d950 df3d
00000010: 4b6e 003d 3bf1 9e3d 6e1a 47bc d1c3 5e3d
00000020: 9e0b 783d 69c3 28be b005 3a3e 6bab 1bbe
00000030: 4eaa 0ebe 11ac e5bc 9817 063e 8744 c5bd
00000040: 8cd1 103e a493 2cbe 5730 1abe 26c1 9b3c
00000050: 5ac0 e3bd 244f 493d 73b1 15bd 0c19 9bbc
00000060: eb6a 34bd 51cb 8fbd 0304 d2bd 0b82 b2bd
00000070: 7812 813e 82bf 81bd d5b8 f9bd 209f f1bd
00000080: e8b5 04be 5aa0 89bd 618d c9bd c827 7e3d
00000090: e34f 06be 22bb 0bbe 607f e9bc 4309 bdbd
000000a0: fd73 1e3c ed95 adbd 2385 be3d 51cf d0bd
000000b0: d173 1e3d c0fc eabc c48d 92bd 9748 0c3e
000000c0: dfd1 18be 30eb 05be 7582 c0bd 55e0 f6bc
000000d0: fdbc 82bd c5d2 bbba 762f 013b 3960 9c3d
000000e0: 4612 a1bd dd51 99bd 5b23 23bd 4d68 d23d
000000f0: 547b 49bd 5bc3 7cbc d290 7ebc 0ee4 bdbc
00000100: 19aa aebc 0751 893d 9f13 f6bd 0c9c 723d
00000110: 3aff 15bd 7e14 2d3b b70f 0cbd 547a c7bb
00000120: e8ac 1cbd 2e07 bb3d bdb6 013e 1072 dabd
00000130: edd0 f03d 156b 93bd 3302 b13d 1d49 dd3d
00000140: 9909 c53c e7e7 db3d 1dbf 1abd 9aae f23d
00000150: a8b7 51bd b06b 843d 5311 663c ad90 64bd
00000160: 48b9 2cbd c598 e73d 3c64 04be b82b b9bd
00000170: 1756 873d e29e 6c3d fa3a a13c 960a 6c3d
00000180: 4ed4 cf3c b2ae 92bc 2a70 20bc c5f2 7fbd
00000190: 1b02 a6bd 4c5e de3d 5aec 753b 859d d2bd
000001a0: a50b 173d ea3d 8e3b e7bf d3bd 6ee7 7c3c
000001b0: 03dc f23d 03bc 06be e814 e1bd 134b 533d
000001c0: 7a1d e3bd ce88 ebbc 05e1 dcbd c888 b43d
000001d0: e6bc ee3d a6fa 953d 0b35 94bd 9a1f 6cbd
000001e0: 9365 eabd 6fe3 9ebd fed9 6f3e 5bb8 bebd
000001f0: 86d7 30bd ca85 e63d ff42 763d 0d03 54bd
00000200: 0a7f 18bd a9d7 3b3d 31a3 d4bc 4cae 653e
00000210: 6cfc 173b ace8 e63d ebc1 e0bc 591d 2a3e
00000220: 63b2 933e e47e 0b3e f7af 493e 7c77 673d
00000230: 3d23 9abd 0753 963c 5b1c 52bd 18c6 2d3c
00000240: 8455 fdbd c23b c43b d1e0 5abd 36a8 05bd
00000250: 17ce 21bc 26b2 e8bd d325 153d 4545 b4bc
00000260: 5024 a2bd e1e9 acbd c622 36bd 7dc9 8d3d
00000270: 1ae5 48bd 2db7 c53d 328a b43d dd99 44bd
00000280: a182 fb3d 69a0 d03d 2971 0f3e 6ff7 cbbd
00000290: 9bcb a1bd bbf8 40bd 75db 093e 8013 8cbd
000002a0: 9288 6a3e 6f10 3f3d d3cd 9c3d 8493 c83c
000002b0: 9b0a ddbd 8eb6 bb3a 91b7 7bbb 793c 48bd
000002c0: c438 623e a7c9 783c 7be0 bb3c 1ec5 99bd
000002d0: e87c 0b3d 21d4 ebbd 8948 f53d fbd3 313d
000002e0: a30c 213b 3d5b abbc f88f da3d 88ca 80bd
000002f0: 1126 95bd 0d86 11be 0a67 ec3d 16a2 1dbe
00000300: f534 a2bd 2e36 183d 7547 76bd 5f93 9cbc
00000310: 1564 9a3c 84f0 073d 7e31 97bd 6427 5abd
00000320: ceb0 5d3d 8173 65bd c081 de3c 7d82 afbc
00000330: 4a14 3bbc 3c8c 8dbd d900 653d 4c90 a8bc
00000340: 7a6a 333e 1fc8 223c b614 d1bd 2945 38bc
00000350: eb30 ec3d 338f 7a3d c089 f9ba 2a0c 773d
00000360: 3044 72bd 1000 aebd ccd1 dbbd 697b 78bd
00000370: 6568 6fbd 6679 ac3d f70b e9bd 23f1 e2bd
00000380: 7330 433e cea9 943d c78e abbd 6365 e03d
00000390: f070 34be fb3a cabd 0db9 19be 128c 403e
000003a0: 166b 41bd c908 0cbd 55c3 873d fda7 9b3c
000003b0: 7fb1 0c3d 1362 66bd d569 b5bd 9ab8 1ebd
000003c0: a5a5 813b b7b5 1b3e 7b06 8c3d 1ce3 b03d
000003d0: 53e5 593b d5e7 fd3d ba83 9dbd ade7 cdbd
000003e0: f03c 4d3d 2dc4 623d 6d8f ddbd ce02 be3d
000003f0: 978a a63c 588a 0b3e 8d9d a5bc a838 8d3c
0.11968363 -0.11330648 0.090738736 0.10904092 0.031355184 0.07760855 -0.012152297 0.054385964
0.060557954 -0.16480793 0.18166232 -0.1520211 -0.13932154 -0.02803615 0.13094938 -0.09632211
0.14142436 -0.16853195 -0.15057503 0.019012999 -0.111206725 0.04914774 -0.036546182 -0.018932842
-0.044047277 -0.070212014 -0.102546714 -0.0871621 0.25209403 -0.06335355 -0.12193457 -0.11797929
-0.12960017 -0.06720038 -0.09841419 0.062049657 -0.13116412 -0.13645604 -0.02850312 -0.09230282
0.009671208 -0.08475862 0.093027376 -0.101957925 0.03868467 -0.028684974 -0.07155946 0.13699566
-0.1492381 -0.13077998 -0.09399883 -0.030136267 -0.06383703 -0.0014329782 0.0019712127 0.076355405
-0.078648135 -0.07486317 -0.03982864 0.102738 -0.04918988 -0.015427436 -0.015537458 -0.023180034
-0.021321343 0.06704908 -0.12015461 0.05923085 -0.036620356 0.002640992 -0.034194674 -0.0060875807
-0.038250834 0.09132229 0.12667365 -0.10666287 0.117585994 -0.07198159 0.086429976 0.10804961
0.024052428 0.10737591 -0.037779916 0.11849709 -0.05120054 0.06465852 0.014042216 -0.055802036
-0.042168885 0.11308435 -0.12928861 -0.09041542 0.06608217 0.05776871 0.019681443 0.057627283
0.02536979 -0.017905567 -0.009792367 -0.062487382 -0.0810587 0.108578295 0.003752491 -0.10283951
0.03687634 0.004340877 -0.10339337 0.0154360365 0.1185837 -0.13157658 -0.10990316 0.05158527
-0.110896066 -0.028751757 -0.107851066 0.088151515 0.11657123 0.07323198 -0.0723668 -0.057647325
-0.11445155 -0.07758223 0.23423001 -0.09312507 -0.04317429 0.11255987 0.060122486 -0.051760722
-0.03723053 0.045859966 -0.025956722 0.2242977 0.0023191227 0.112748474 -0.027436217 0.16612758
0.28847036 0.13622624 0.19696032 0.056510434 -0.075262524 0.018350137 -0.051296573 0.010606311
-0.123698264 0.005988569 -0.053437058 -0.03263112 -0.009875796 -0.11362104 0.036413025 -0.022005687
-0.07917082 -0.08443046 -0.044466756 0.069231965 -0.049046613 0.09654079 0.08815421 -0.047998298
0.12280775 0.10186846 0.14008011 -0.099593036 -0.07900163 -0.047112208 0.13462622 -0.06839657
0.2290366 0.04664653 0.07656445 0.024484403 -0.107930385 0.0014321373 -0.0038408975 -0.048885796
0.22091967 0.015184796 0.022934189 -0.075083 0.034054667 -0.1151507 0.119767256 0.04341505
0.0024574182 -0.02091753 0.10671991 -0.0628863 -0.07282651 -0.14211293 0.11543091 -0.15393862
-0.07920257 0.037161045 -0.06012674 -0.01911324 0.018846551 0.033188358 -0.07382487 -0.053260222
0.054123692 -0.056018356 0.027161479 -0.021424526 -0.0114184115 -0.06911513 0.05590901 -0.020576619
0.17521086 0.009935408 -0.102090284 -0.011246958 0.11532768 0.06117172 -0.0019038245 0.060314335
-0.05914706 -0.08496106 -0.10733375 -0.060664568 -0.058449168 0.084215924 -0.11379235 -0.110811494
0.1906145 0.0725895 -0.08376842 0.10956838 -0.17621207 -0.09874531 -0.15011998 0.18803433
-0.047221266 -0.034188066 0.066290535 0.019001001 0.03434896 -0.056245875 -0.088580765 -0.03875027
0.003956514 0.15206037 0.068371736 0.08637068 0.003324826 0.12397734 -0.076911405 -0.10053954
0.050106943 0.05536287 -0.10818372 0.09277879 0.020329757 0.13626993 -0.020216728 0.01723893
